cuda:0
[INFO] Done importing packages.
[INFO] Loading Traning and Test Datasets.
[INFO] Done loading data.
Network: Net(
  (conv1): Conv2d(3, 16, kernel_size=(3, 3), stride=(1, 1))
  (conv2): Conv2d(16, 32, kernel_size=(3, 3), stride=(1, 1), padding=(1, 1))
  (conv3): Conv2d(32, 64, kernel_size=(3, 3), stride=(1, 1), padding=(1, 1))
  (conv4): Conv2d(64, 128, kernel_size=(5, 5), stride=(3, 3), padding=(1, 1))
  (pool4): MaxPool2d(kernel_size=2, stride=2, padding=0, dilation=1, ceil_mode=False)
  (batchNormalization1): BatchNorm2d(16, eps=1e-05, momentum=0.1, affine=True, track_running_stats=True)
  (batchNormalization2): BatchNorm2d(32, eps=1e-05, momentum=0.1, affine=True, track_running_stats=True)
  (batchNormalization3): BatchNorm2d(64, eps=1e-05, momentum=0.1, affine=True, track_running_stats=True)
  (batchNormalization11): BatchNorm2d(128, eps=1e-05, momentum=0.1, affine=True, track_running_stats=True)
  (batchNormalization4): BatchNorm1d(2400, eps=1e-05, momentum=0.1, affine=True, track_running_stats=True)
  (batchNormalization5): BatchNorm1d(1200, eps=1e-05, momentum=0.1, affine=True, track_running_stats=True)
  (batchNormalization6): BatchNorm1d(600, eps=1e-05, momentum=0.1, affine=True, track_running_stats=True)
  (batchNormalization7): BatchNorm1d(300, eps=1e-05, momentum=0.1, affine=True, track_running_stats=True)
  (batchNormalization8): BatchNorm1d(120, eps=1e-05, momentum=0.1, affine=True, track_running_stats=True)
  (batchNormalization9): BatchNorm1d(60, eps=1e-05, momentum=0.1, affine=True, track_running_stats=True)
  (batchNormalization10): BatchNorm1d(30, eps=1e-05, momentum=0.1, affine=True, track_running_stats=True)
  (fc1): Linear(in_features=3200, out_features=2400, bias=True)
  (fc2): Linear(in_features=2400, out_features=1200, bias=True)
  (fc3): Linear(in_features=1200, out_features=600, bias=True)
  (fc4): Linear(in_features=600, out_features=300, bias=True)
  (fc5): Linear(in_features=300, out_features=120, bias=True)
  (fc6): Linear(in_features=120, out_features=60, bias=True)
  (fc7): Linear(in_features=60, out_features=30, bias=True)
  (fc8): Linear(in_features=30, out_features=10, bias=True)
)
[TIMER] Process Time so far: 3.1875 seconds
Beginning Epoch 1...
Epoch: 1, Mini-Batches Processed:   500, Loss: 0.57617
Epoch: 1, Mini-Batches Processed:  1000, Loss: 0.57571
Epoch: 1, Mini-Batches Processed:  1500, Loss: 0.57561
Epoch: 1, Mini-Batches Processed:  2000, Loss: 0.57532
Epoch: 1, Mini-Batches Processed:  2500, Loss: 0.57492
Epoch: 1, Mini-Batches Processed:  3000, Loss: 0.57431
…
