cuda:0
[INFO] Done importing packages.
[INFO] Loading Traning and Test Datasets.
[INFO] Done loading data.
Network: Net(
  (conv1): Conv2d(3, 12, kernel_size=(3, 3), stride=(1, 1))
  (pool2): MaxPool2d(kernel_size=3, stride=3, padding=0, dilation=1, ceil_mode=False)
  (conv2): Conv2d(12, 36, kernel_size=(3, 3), stride=(1, 1))
  (fc1): Linear(in_features=28224, out_features=2400, bias=True)
  (fc2): Linear(in_features=2400, out_features=1200, bias=True)
  (fc3): Linear(in_features=1200, out_features=600, bias=True)
  (fc5): Linear(in_features=600, out_features=300, bias=True)
  (fc6): Linear(in_features=300, out_features=120, bias=True)
  (fc7): Linear(in_features=120, out_features=60, bias=True)
  (fc8): Linear(in_features=60, out_features=30, bias=True)
  (fc9): Linear(in_features=30, out_features=10, bias=True)
)
[TIMER] Process Time so far: 4.23438 seconds
Beginning Epoch 1...
Epoch: 1, Mini-Batches Processed:   500, Loss: 0.57746
Epoch: 1, Mini-Batches Processed:  1000, Loss: 0.57602
Epoch: 1, Mini-Batches Processed:  1500, Loss: 0.57612
Epoch: 1, Mini-Batches Processed:  2000, Loss: 0.57639
Epoch: 1, Mini-Batches Processed:  2500, Loss: 0.57599
Epoch: 1, Mini-Batches Processed:  3000, Loss: 0.57764
…
